model.pkl (torch_old, 919560 bytes, 25 tensors)

weight f4 [12544, 10]
000000 78 71 8c 3e 2a 75 e1 bd 14 9a a8 3d a9 c2 06 be
       0.2743032 -0.110086754 0.08232513 -0.13160194
000010 7e b2 71 3e a2 22 fb 3d df 11 dc bd d8 77 64 39
       0.23603246 0.12262465 -0.10745596 0.0002178842
000020 53 73 16 be a5 57 93 bb f6 5f d1 3d b3 66 2e be
       -0.1469243 -0.004496532 0.10223381 -0.17031364
000030 79 fb a6 3d 8b b4 3e 3e 5e 46 d8 3d 39 6d 65 be
       0.08153433 0.18623559 0.105602965 -0.22404946
000040 bc 0d 90 be 5f 9d af 3d 32 c1 0a be 4c 2a dc bd
       -0.28135478 0.08574938 -0.1355026 -0.10750255
000050 40 6e 5a 3e 8c cf 7d 3e e5 5f 92 3e 3f c3 4a 3d
       0.2133112 0.24786204 0.28588787 0.049502607
000060 6d 9e 0f 3e a1 42 80 be 74 ba 9f 3d 0f f4 75 3e
       0.14025278 -0.25050834 0.07799235 0.24018882
000070 7c 19 91 3e 17 21 54 be 52 87 74 3e 23 fd a6 bc
       0.28339756 -0.20715748 0.23879746 -0.020384377
000080 81 5c 86 3e 96 a0 a6 be c3 ab 6e be 22 8e 87 3d
       0.2624245 -0.32544392 -0.2330771 0.066189066
000090 ff ea 79 be 7b 3b 01 3e 3a 62 a1 be 98 60 86 be
       -0.2440605 0.12620346 -0.31520253 -0.2624557
0000a0 b0 3f 5a 3d ee 0d 52 3e 57 96 aa bd 6a ad fe bd
       0.053283393 0.20513126 -0.08329456 -0.1243542
0000b0 3f c6 f8 bd cc 3b 80 3d 57 8e 8a bd 51 03 07 be
       -0.121471874 0.06261405 -0.067654304 -0.13184859
0000c0 9e 0b 5a 3d e6 92 3c 3e 68 36 76 be 89 4f fd 3d
       0.053233735 0.18415412 -0.24044192 0.12368686
0000d0 b5 19 00 3e dd 52 44 3e e4 a1 56 be 44 12 8f 3e
       0.12509806 0.19172235 -0.20960194 0.27943623
0000e0 1e 75 5e be 2a 21 3c be d9 7d 7c be 95 52 8e 3d
       -0.21724364 -0.18372026 -0.24657382 0.06949345
0000f0 e3 10 f4 3d f8 72 99 be 10 9e 89 be 82 4d 62 3e
       0.119172834 -0.29970527 -0.26878405 0.2209988
000100 cd 96 43 3e 36 61 b5 3d 61 d2 02 3e 90 48 98 be
       0.19100495 0.08856432 0.12775566 -0.2974286
000110 26 ac 81 3e 7f 6f 96 be 53 ac 5e be 70 16 a4 3d
       0.2532665 -0.2938194 -0.21745424 0.08012092
000120 d7 16 00 bd 70 88 85 be 56 0b 92 ba 93 b0 74 be
       -0.03127178 -0.26080656 -0.0011142294 -0.23895483
000130 31 9f 7e be 4d eb 84 3e aa 2e 96 3e c6 14 1e 3e
       -0.24865414 0.2596077 0.29332477 0.15437612
000140 6a dc 8a 3e 94 02 70 3e 61 e0 67 3e 8b de 41 be
       0.27121288 0.23438483 0.22644188 -0.1893255
000150 dd 3e 4c be 79 10 b2 3d 0c 60 6a be 1c 0a 24 be
       -0.19945855 0.08694548 -0.22888201 -0.16019481
000160 54 30 3d be 20 fb 49 be 79 6b 76 3e 73 68 30 3d
       -0.18475467 -0.19724703 0.24064435 0.04306836
000170 6f 7b 80 be 8f ec 45 be 52 61 33 3e 56 72 c4 3b
       -0.25094172 -0.19328521 0.17517594 0.005995075
000180 0c c5 13 be 5d df b6 bd f6 b7 9a 3d 83 23 7a 39
       -0.14430636 -0.08929322 0.07554619 0.00023855087
000190 cb 31 34 3e 52 5d 45 be 3e 4c 76 be 09 ad 9f 3e
       0.1759712 -0.1927388 -0.24052522 0.31186703
0001a0 a9 b1 47 3b be 9e 7a bd 41 89 82 3e 1e 3c 59 bd
       0.0030470884 -0.061186545 0.2549534 -0.053035848
0001b0 9c 07 1b 3e 8b 18 94 3e 5b ef 38 bd 07 48 8e be
       0.15139621 0.28924975 -0.045150142 -0.27789328
0001c0 c8 7a 7b be 34 8f 50 be 8d 1e 91 3e 7a f8 50 3e
       -0.24558556 -0.20367128 0.2834362 0.20407286
0001d0 bb 60 25 be 45 a4 b2 bd 3e ee 31 3e 02 f7 90 3e
       -0.16150181 -0.08722738 0.17376038 0.28313452
0001e0 69 4c e0 3b 3e a2 d4 bd 3b ce 7a 3d 14 0a 4f be
       0.0068450463 -0.10382508 0.061231833 -0.20218688
0001f0 1e 51 0d 3d 46 ab 00 be d3 03 08 3e 3c d5 2a be
       0.034501188 -0.12565336 0.13282709 -0.16682905
000200 e7 41 ec 3d 36 b9 2e be d3 81 a4 3d ff 4a 46 3e
       0.115360074 -0.1706284 0.080325745 0.19364546
000210 de ec 8c be d4 d3 97 bc ad b3 5b be 80 bf 6b 3e
       -0.27524465 -0.018533625 -0.2145526 0.2302227
000220 b2 b8 75 be 62 4b 28 be b6 23 1c 3e 20 c2 93 3e
       -0.23996237 -0.16435006 0.15247998 0.28859043
000230 04 75 5d be db b7 55 be 79 46 90 3c ec 81 9c 3d
       -0.21626669 -0.20870917 0.017611729 0.07641968
000240 9e b3 41 be 13 87 8b 3e db 97 14 3e 7f ab 41 be
       -0.18916175 0.2725149 0.14511053 -0.18913077
000250 f7 26 1b 3e 81 a5 03 3e 5c fe 52 3e 78 d1 0e bd
       0.15151583 0.12856103 0.20604843 -0.034867734
000260 ed 8f cf bd 75 4a 18 bd 1e 82 26 3e ff ba 47 3e
       -0.101348735 -0.037180383 0.16260573 0.19504927
000270 b8 c3 83 3e 6f fd 84 be 3c c3 9b 3d c1 b9 ef bd
       0.2573526 -0.25974604 0.076055974 -0.117053516
000280 4c d3 82 3e 96 ad 0f bd 12 fe 84 3e 4b 5b f3 3d
       0.25551832 -0.035077654 0.2597509 0.11882647
000290 78 a0 6f 3e 4d 16 2c be 1d 68 31 3e eb 2a d7 bc
       0.23401058 -0.16805382 0.17324872 -0.026265582
0002a0 c6 c6 16 be 40 2e 70 bd 9a 0b d2 bd a1 3a 31 be
       -0.14724264 -0.058637857 -0.10256119 -0.17307521
0002b0 54 a0 e2 3c af c4 0b 3e 30 a2 6e 3e d4 8f da 3d
       0.027664341 0.13649248 0.23304057 0.10671964
0002c0 75 81 11 be 8e 8e 5d be 8c e4 32 3e fa 78 7e be
       -0.1420954 -0.21636412 0.17469996 -0.24850836
0002d0 0a 1e 08 3e 53 e5 78 be df d1 79 be cb 85 81 be
       0.13292709 -0.2430623 -0.24396466 -0.25297388
0002e0 e0 b2 74 be 48 0c 59 3d 1f 76 86 be 1c 53 77 be
       -0.2389636 0.052990228 -0.26261994 -0.24152797
0002f0 28 d6 87 3d 9d 97 47 3e 9a 16 ac bd 2f 0c 13 3e
       0.06632644 0.1949143 -0.084027484 0.14360116
000300 0e 35 67 3e 30 dc 32 3e e6 ea 2a 3d 1c ec 0f bc
       0.22578833 0.17466807 0.041727923 -0.00878432
000310 43 7c 5c 3e 90 83 dd bd dc 5d 5c 3e 20 52 60 bd
       0.21531777 -0.10816109 0.2152018 -0.05476582
000320 c2 26 8e 3e 32 bf 1e be ee 75 c0 3d fe 08 26 be
       0.27763945 -0.15502623 0.09397493 -0.16214368
000330 ac 7a 81 be b9 b6 71 3e 2b b1 56 be c1 ac 21 be
       -0.25288904 0.2360486 -0.20966022 -0.15788557
000340 44 14 ef bd 8d 75 61 3d 27 9e af bc e4 86 0b be
       -0.11673787 0.055043746 -0.021437718 -0.13625675
000350 9d dc 98 bd b4 5e 14 3e 20 9a 2a be 9f 14 ad bd
       -0.07463954 0.14489251 -0.16660357 -0.08451199
000360 24 b6 df 3d b6 ca 86 3e fd e8 1c be af 84 3a 3e
       0.109234124 0.2632653 -0.15323253 0.18214677
000370 d7 7c 96 3d e9 67 3f bc 93 ec 62 3c 89 5c da 3d
       0.0734803 -0.011682489 0.013850349 0.10662181
000380 51 4a 84 3e c1 52 2c be e1 9d f9 3c f8 d8 c6 bd
       0.2583795 -0.16828443 0.03047079 -0.09709352
000390 be 6b 50 3e 9a ea 52 3e 1c 3e 91 3e e4 0b f3 3d
       0.203536 0.20597306 0.28367698 0.11867502
0003a0 64 14 a9 bd ac 64 93 3e 29 24 87 be 5b b9 26 3e
       -0.08255842 0.28787744 -0.26394776 0.16281645
0003b0 4c 3f 4d 3e 7b 12 94 be 86 11 b3 3c d7 84 85 be
       0.20043677 -0.2892035 0.021858942 -0.2607791
0003c0 19 21 76 3e 1d 6a 79 3e d1 b7 87 3e f5 db 6e 3d
       0.24036063 0.24356885 0.26507428 0.058315236
0003d0 a4 78 81 bc ed 3c 5e 3e fc 58 14 3e b1 d6 45 be
       -0.015804596 0.21702929 0.1448707 -0.1932018
0003e0 cf 0d e4 bd ea d5 6e 3e bb 55 fd bd 74 42 54 3e
       -0.11135446 0.23323789 -0.123698674 0.20728475
0003f0 d5 90 38 3e 6e 71 2b 3e 9d 4f 62 bd 34 df 22 be
       0.18023999 0.16742489 -0.055251706 -0.15905458

bias f4 [12544]
000000 79 d8 42 3e 95 b9 18 3d a1 1b 2f 3d 96 ed 2f 3e
       0.1902789 0.03728636 0.04275096 0.17180476
000010 71 33 41 3e 23 c0 67 be d2 a0 9c 3b d6 47 08 be
       0.1886728 -0.22631888 0.0047799135 -0.13308653
000020 14 c8 01 3e ed b5 d8 3d 16 4d 49 be 1b 9d 0f 3e
       0.1267398 0.105815746 -0.19658312 0.14024775
000030 2b c6 90 bc ee 2c 2c 3e 4c 46 21 3e c9 dd 96 bd
       -0.017672619 0.16814014 0.15749472 -0.07366521
000040 ea aa 4c 3e cc 73 f3 ba 2c 06 62 bd 5d 7f 6d 3e
       0.19987074 -0.0018573939 -0.055181667 0.23193116
000050 94 7e 91 3e 1e d8 8c 3e c9 66 78 3e 0f 1e 77 3c
       0.28416884 0.27508634 0.2425796 0.01508285
000060 82 74 45 be 0b 1c 29 3e 3e 6f c3 bd c6 09 1b bd
       -0.19282725 0.16514604 -0.09542702 -0.037851118
000070 eb b9 7c 3c 97 95 eb 3d 32 36 64 be 7b 85 57 3e
       0.015425186 0.115031414 -0.22286299 0.21047013
000080 52 51 2f be a7 c8 f7 bd 79 ab 8f 3c 60 c3 14 be
       -0.17120865 -0.12098818 0.01753782 -0.14527655
000090 31 4a cc bc 59 45 b0 3d d1 60 80 3e 7d cf e5 bd
       -0.024937721 0.08606977 0.25073865 -0.11221216
0000a0 36 ec 14 be 03 38 e9 3d 6d 57 14 be 61 d5 89 3e
       -0.14543232 0.113876365 -0.14486475 0.26920608
0000b0 19 17 6d 3e 5e 26 95 3e 32 28 7f 3e 55 50 67 bd
       0.23153342 0.29130834 0.24917677 -0.056473095
0000c0 9f f8 a2 3d 41 78 dc 3d 85 b2 6f 3d c1 41 41 3e
       0.07957577 0.10765124 0.05851986 0.1887274
0000d0 05 b2 fe 3d fa 8e 07 be ed 42 4d be 96 bf 1c ba
       0.12436298 -0.13238135 -0.20045061 -0.0005979476
0000e0 d3 1f a0 3d f0 77 d4 bd 88 6d 20 be 1d 6f 96 be
       0.0781857 -0.10374439 -0.15666783 -0.29381648
0000f0 28 5e 2c be ff 8e da 3d bf db 8a 3e 39 bc 1b be
       -0.16832793 0.106718056 0.27120778 -0.1520852
000100 77 af fb bd 05 72 7a be 09 9c 9d be 15 ee 03 3e
       -0.12289327 -0.24457557 -0.30783108 0.1288379
000110 5a 96 5a be 8a 05 92 3e 4f d4 41 bd f9 ad 9a 3d
       -0.21346417 0.2851985 -0.047321614 0.07552714
000120 91 a6 79 3e d2 03 89 be 3e ac 1f bd 09 98 0f be
       0.24379946 -0.26760727 -0.038982622 -0.1402284
000130 05 28 0e 3e aa a7 b0 3d e1 48 f9 3d 97 f0 17 3d
       0.13882454 0.086257294 0.12172104 0.03709468
000140 27 a3 80 be 03 f0 70 3e 58 ec c1 3d c3 3d 9e be
       -0.25124475 0.23529057 0.09468907 -0.30906495
000150 8c 8f 70 be cf fd 67 be 91 13 30 be e8 7e ab bd
       -0.23492259 -0.22655414 -0.17194964 -0.08373815
000160 ca a5 63 3e 0a 92 96 be 38 d7 17 3e 92 a7 9e be
       0.22231212 -0.29408294 0.14828193 -0.3098722
000170 67 db ad bd b1 7b 34 3e 90 2b 35 be 06 5a b3 3d
       -0.08489113 0.1762531 -0.17692399 0.08757405
000180 9e 51 11 be 40 da 79 3e 78 00 7f be cd 00 23 be
       -0.1419129 0.24399662 -0.24902523 -0.15918274
000190 10 29 a0 be 55 d3 03 3e d5 26 27 3e bd a4 63 bd
       -0.31281328 0.12873586 0.16323407 -0.05557703
0001a0 41 31 15 3b 8b ff de bd d4 f0 3b be a7 51 6c be
       0.0022764953 -0.10888585 -0.18353587 -0.23078023
0001b0 e4 a7 d6 3b a6 20 68 3e b9 7b 36 bd dc 38 6c bd
       0.006550776 0.22668704 -0.044551585 -0.057671413
0001c0 aa 9a 92 3d 96 59 40 be 0c 8e 5f 3e 78 c9 73 3d
       0.07158406 -0.18784174 0.2183153 0.059518307
0001d0 a8 b9 56 be c6 6d 67 be 74 e5 c5 3c 83 b2 6d 3e
       -0.2096926 -0.22600469 0.024157263 0.23212628
0001e0 1d 1c cc 3d 95 1b 64 3e 3f 64 13 3d e1 6c 3a 3e
       0.099663 0.22276147 0.035984274 0.18205597
0001f0 e2 ae 33 be 8b c2 07 3d cf 40 0f 3e 08 7d 2d be
       -0.17547181 0.033144515 0.13989566 -0.16942227
000200 ee 03 a0 3e c0 c7 7b 3e a5 67 88 be b0 8f 60 bb
       0.31252998 0.24587917 -0.26641575 -0.0034265332
000210 6c 36 fb 3c 12 c0 cf 3d 91 04 6a be 3a fb 14 be
       0.030665599 0.101440564 -0.22853304 -0.1454896
000220 bf e1 59 be 47 d6 55 3e 1b f9 45 be 13 c4 77 3c
       -0.21277522 0.20882522 -0.19333307 0.015122431
000230 e0 8a 18 3e e2 ce 4a be 96 1e 19 3e 98 2f 96 be
       0.14896727 -0.19805482 0.14953074 -0.29333186
000240 6c c5 1e 3e 95 32 7b 3e df be 16 be 07 7c 8f 3c
       0.15504998 0.24531014 -0.14721249 0.017515196
000250 bd e5 9f 3e e6 ea 55 be aa 7a 11 be 30 ea 15 be
       0.31229964 -0.20890388 -0.14206949 -0.14640117
000260 97 ac 71 3e ad 88 83 be bf 80 52 bd 81 3c 61 3d
       0.23600994 -0.25690213 -0.051392313 0.05498934
000270 88 e3 c0 3d db 49 06 be 24 3b 20 3e 4a f9 69 3e
       0.09418398 -0.13114111 0.1564756 0.22849002
000280 9e e9 e4 bc 38 c5 a0 3d f8 3f ca bd db b9 58 3e
       -0.027943429 0.078501165 -0.09875482 0.21164648
000290 60 66 2a 3e 44 4d 0e be c4 fa 40 be 24 72 58 3e
       0.16640615 -0.13896662 -0.1884566 0.21137291
0002a0 ec 3d 0b 3d 8c 70 8c 3e e5 d4 07 3e 9d 4c cf 3d
       0.0339946 0.27429616 0.13264807 0.10122035
0002b0 d2 a2 ce bd b2 02 7e bd 60 d6 70 3d 59 e9 8d be
       -0.10089649 -0.06201429 0.058798194 -0.27717093
0002c0 2a 58 26 3e b2 4d 96 bd 15 ef 0c 3e 07 c1 40 be
       0.1624457 -0.07339038 0.13763078 -0.18823634
0002d0 9d f0 62 be fe 70 01 3e 5e f6 4b 3e 46 21 fb 3d
       -0.22162099 0.1264076 0.199182 0.12262206
0002e0 b8 98 03 3e aa fe 34 3e ea 22 0b be d9 bc 06 be
       0.12851226 0.17675272 -0.13587537 -0.13157977
0002f0 5e 74 18 3e 86 88 6c 3e e7 75 bf 3c a7 c4 24 3e
       0.1488814 0.23098955 0.02337165 0.16090642
000300 c0 0a 56 3d 1c 75 1b bd ac 6b 72 be fb 41 e8 3d
       0.052256346 -0.03795348 -0.23673886 0.1134071
000310 cf f7 22 be 93 32 8c 3d 65 bc 01 be c1 e6 37 3e
       -0.15914844 0.06845584 -0.12669523 0.1795912
000320 22 a6 3c 3e 87 ef 94 3e a7 6f 17 3e ff 38 3a bc
       0.1842275 0.29088995 0.14788686 -0.011366128
000330 80 c9 95 3c 85 5f 78 be 66 6a 79 be 92 f6 98 3e
       0.01828456 -0.24255188 -0.24356994 0.29875618
000340 cf cc ed bc df 84 31 3d 23 eb b7 3d c4 84 24 bd
       -0.029028324 0.043339606 0.08980396 -0.040165678
000350 c4 68 1a 3e 72 c1 4e 3e a6 ba 97 be 8b 89 7c 3e
       0.15079027 0.20190981 -0.2963459 0.24661843
000360 86 c5 f2 3d 13 c9 0f 3d 6b cc 5d 3e 82 aa b9 bd
       0.11854081 0.03510387 0.2166001 -0.09065725
000370 c0 c7 41 be 95 3c c6 bd 6f f3 16 bd 89 a7 93 be
       -0.18923855 -0.09679524 -0.03685325 -0.28838757
000380 0a b9 4c be 34 b2 91 3e c7 58 93 3e 07 5d 88 bd
       -0.19992462 0.2845627 0.2877867 -0.066583686
000390 a5 61 2b be 44 f0 90 3d 70 60 6e be ed 5e 75 3d
       -0.16736467 0.07077077 -0.23278975 0.05990498
0003a0 24 bc a5 bd 3d 19 60 3e 2d fb a0 be c2 e4 2a be
       -0.080925256 0.21884628 -0.31441632 -0.16688827
0003b0 1c c0 38 3d 7a 3c 23 be a1 ce 45 3c 07 0c 08 3e
       0.045105085 -0.15941039 0.01207319 0.13285838
0003c0 7c c6 81 3e 32 09 6f bd b4 d2 c8 3d 40 9e c9 bd
       0.25346744 -0.05835838 0.098058134 -0.09844637
0003d0 eb 79 e0 bd d5 9a aa bd 18 a1 2f bc cd 4c 94 3e
       -0.10960754 -0.08330313 -0.01071956 0.28964844
0003e0 5b c0 a0 bc 2c e2 8e 3e d2 cf a4 3c 9e 6f 33 3e
       -0.019622972 0.2790693 0.020118628 0.17523047
0003f0 82 7d 55 3e 4f 61 b5 3d ca a7 c2 3d d0 34 9c 3e
       0.20848659 0.08856451 0.095046595 0.30509043

weight f4 [12544]
000000 43 49 84 3f 05 c2 84 3f 7f ba 88 3f b0 3c 85 3f
       1.0334858 1.037171 1.0681914 1.0409145
000010 80 f4 86 3f 2b 4a 87 3f 38 cd 87 3f 6c 93 86 3f
       1.0543365 1.0569509 1.0609503 1.051374
000020 6f 7f 89 3f 44 50 89 3f 11 bf 87 3f 6f 5b 87 3f
       1.0742015 1.072762 1.0605184 1.0574778
000030 19 d9 86 3f 22 97 84 3f 78 21 85 3f 7e 40 85 3f
       1.0535003 1.0358622 1.0400839 1.0410306
000040 c9 63 87 3f ed bb 86 3f da 06 89 3f af bd 84 3f
       1.0577327 1.05261 1.0705216 1.0370387
000050 cd 0d 80 3f 7c 46 83 3f 44 7f 87 3f 47 38 82 3f
       1.0004212 1.0255885 1.0585713 1.0173424
000060 4e 27 87 3f 3d 4f 88 3f 06 6b 87 3f 46 b9 82 3f
       1.055887 1.0649182 1.0579536 1.0212791
000070 49 89 85 3f f6 f0 87 3f 6a 2f 85 3f 27 1f 87 3f
       1.0432521 1.062041 1.0405095 1.0556382
000080 3b 9e 85 3f 58 40 80 3f d0 78 78 3f 58 4e 76 3f
       1.0438913 1.0019636 0.97059345 0.96213293
000090 0c 5c 7a 3f fc 25 80 3f ec 96 7d 3f 90 70 80 3f
       0.977967 1.0011592 0.99058414 1.0034351
0000a0 11 62 85 3f 0d 11 85 3f 75 63 85 3f 17 0b 86 3f
       1.0420552 1.0395828 1.0420977 1.0472134
0000b0 f3 bd 85 3f 3e b2 7c 3f 4e bd 7b 3f 37 68 75 3f
       1.0448593 0.98709476 0.9833573 0.95862144
0000c0 fa 21 76 3f b6 50 71 3f 5f 7c 76 3f 96 81 75 3f
       0.96145594 0.9426378 0.96283525 0.9590086
0000d0 21 5d 78 3f 99 12 80 3f 43 26 83 3f 42 cf 82 3f
       0.97017103 1.0005676 1.0246052 1.02195
0000e0 8e ad 85 3f a8 50 88 3f b3 83 84 3f 1f 1b 83 3f
       1.044359 1.0649614 1.0352691 1.0242652
0000f0 8a 42 76 3f 9e 61 75 3f c6 94 72 3f 3a b1 7b 3f
       0.9619528 0.95852077 0.9475826 0.983173
000100 11 c7 74 3f 6f 0a 7f 3f 7f 84 7b 3f d4 3b 82 3f
       0.9561625 0.99625295 0.9824905 1.0174508
000110 f6 a6 80 3f 05 18 84 3f 9b e2 86 3f 29 e0 85 3f
       1.0050952 1.031983 1.0537905 1.0459033
000120 a2 61 84 3f d8 c7 7b 3f 1b 53 76 3f 19 90 7a 3f
       1.0342295 0.9835181 0.9622056 0.97876126
000130 14 c9 76 3f e8 78 81 3f 5b 88 7e 3f e8 3e 7d 3f
       0.9640057 1.0115023 0.9942681 0.9892411
000140 f4 01 81 3f c5 db 85 3f d7 a3 86 3f e2 9d 84 3f
       1.0078721 1.0457693 1.051875 1.0360682
000150 fc 73 87 3f ec 42 89 3f 67 64 7f 3f ee 83 7b 3f
       1.0582271 1.0723548 0.99762577 0.98248184
000160 61 db 75 3f ec 0b 79 3f c6 61 81 3f bb 7c 7e 3f
       0.9603787 0.97283816 1.0107963 0.99409074
000170 91 c3 80 3f df 2d 76 3f e8 26 7d 3f 35 68 83 3f
       1.0059682 0.96163744 0.9888749 1.0266176
000180 15 a1 7e 3f c0 61 83 3f 98 ce 87 3f 62 8a 87 3f
       0.9946454 1.0264206 1.0609922 1.0589106
000190 37 29 7f 3f 27 48 7e 3f 45 e2 77 3f 8f 31 79 3f
       0.99672264 0.99328846 0.96829635 0.97341245
0001a0 4b a3 75 3f d4 c3 73 3f 38 97 7c 3f 39 d5 81 3f
       0.9595229 0.95220685 0.9866824 1.0143195
0001b0 38 a3 81 3f 8c 81 7c 3f 87 54 81 3f b4 4c 82 3f
       1.0127935 0.9863517 1.0103921 1.0179658
0001c0 ca 92 86 3f fa 2e 87 3f 57 52 82 3f 5f 13 7a 3f
       1.0513546 1.0561211 1.0181378 0.9768581
0001d0 5e 97 80 3f 38 25 7d 3f 56 6c 7c 3f 68 63 77 3f
       1.0046194 0.98884916 0.9860281 0.96636057
0001e0 85 cd 77 3f 86 ab 7c 3f 18 30 7a 3f a7 ce 82 3f
       0.9679797 0.98699224 0.97729635 1.0219315
0001f0 d5 5d 80 3f 57 2d 81 3f fb 02 88 3f e5 83 85 3f
       1.0028635 1.0091962 1.062591 1.0430876
000200 13 84 81 3f 90 ff 7e 3f f9 2d 78 3f 26 71 80 3f
       1.0118431 0.9960871 0.9694515 1.003453
000210 b5 58 7f 3f 5a 09 7d 3f a3 ba 79 3f dd 38 81 3f
       0.9974473 0.98842394 0.9755041 1.0095478
000220 26 e1 7e 3f 20 e8 82 3f eb b2 84 3f 0b cd 80 3f
       0.995623 1.0227089 1.0367101 1.0062574
000230 cc 6c 86 3f 4e 81 89 3f b7 92 7c 3f fd e1 7a 3f
       1.0501952 1.0742586 0.9866137 0.9800108
000240 86 72 80 3f 55 7a 74 3f fd 65 75 3f 76 cf 78 3f
       1.003495 0.95499164 0.95858747 0.9719156
000250 fb 80 78 3f e8 96 7e 3f 4d cb 81 3f 15 23 80 3f
       0.9707181 0.99449015 1.0140167 1.0010706
000260 4f a9 83 3f 00 d0 82 3f e9 32 86 3f bf 5b 88 3f
       1.0286044 1.0219727 1.0484287 1.0652999
000270 cf 33 81 3f ce 33 80 3f 68 ee 74 3f 10 98 74 3f
       1.0093936 1.001581 0.9567628 0.9554453
000280 b3 ee 77 3f eb 4a 7f 3f eb 8c 7f 3f a5 44 81 3f
       0.968486 0.9972369 0.998244 1.0099074
000290 dd b7 80 3f e6 aa 86 3f e2 98 85 3f d1 88 83 3f
       1.0056111 1.0520904 1.0437281 1.0276128
0002a0 7c 76 87 3f 30 67 87 3f 34 10 82 3f f4 a9 79 3f
       1.0583034 1.0578365 1.0161195 0.9752495
0002b0 45 db 80 3f 9b 9b 82 3f 8d c4 7b 3f 9c a6 80 3f
       1.0066916 1.0203737 0.9834679 1.0050845
0002c0 2e 84 7f 3f ef a5 85 3f f7 91 80 3f 59 3d 85 3f
       0.99811065 1.0441264 1.0044545 1.0409347
0002d0 92 c4 83 3f a3 88 7f 3f 26 7b 81 3f 4d df 81 3f
       1.0294363 0.99817866 1.0115707 1.0146271
0002e0 76 e8 81 3f d7 8d 82 3f c6 4c 83 3f 13 2f 82 3f
       1.0149066 1.0199536 1.0257804 1.0170616
0002f0 b5 c9 80 3f a6 38 80 3f 02 19 81 3f 1b 50 82 3f
       1.0061556 1.0017288 1.0085757 1.0180696
000300 86 7a 7d 3f 09 90 80 3f 6c d8 80 3f f1 2e 84 3f
       0.9901508 1.0043956 1.0066047 1.0326825
000310 f7 20 83 3f 4f 9f 7e 3f 6d 5e 80 3f 43 af 7e 3f
       1.0244435 0.99461836 1.0028816 0.9948618
000320 88 30 82 3f d8 6d 7f 3f 86 cd 81 3f 39 1c 7f 3f
       1.017106 0.99776983 1.0140846 0.9965244
000330 04 b5 77 3f 10 0f 7d 3f 6f 0e 7d 3f c2 97 86 3f
       0.9676058 0.9885111 0.9885015 1.0515063
000340 53 07 80 3f b0 9e 83 3f a6 d3 7e 3f e9 cd 80 3f
       1.0002235 1.0282803 0.995417 1.0062839
000350 cc 67 80 3f 31 e0 81 3f 54 ae 77 3f 40 af 7e 3f
       1.0031676 1.0146543 0.9675038 0.9948616
000360 3f af 81 3f a9 a4 7a 3f 75 2f 83 3f ca 46 77 3f
       1.0131606 0.979075 1.0248858 0.9659239
000370 a8 44 7a 3f a3 de 76 3f f5 24 81 3f f1 ae 78 3f
       0.9776101 0.96433467 1.0089403 0.9714194
000380 cb 8a 80 3f ae 5a 7e 3f 54 82 81 3f 12 70 7a 3f
       1.0042356 0.99357116 1.0117898 0.97827256
000390 8d 37 7b 3f c9 ee 7c 3f ea 3a 7e 3f 23 66 80 3f
       0.9813164 0.9880186 0.99308646 1.003117
0003a0 34 49 83 3f f8 02 81 3f ec 72 78 3f a9 97 81 3f
       1.0256715 1.0079031 0.97050357 1.0124408
0003b0 48 02 78 3f 29 d9 7d 3f 68 aa 7b 3f eb c5 79 3f
       0.9687848 0.99159485 0.98306894 0.97567624
0003c0 3f 4c 7b 3f aa 35 79 3f c8 dd 73 3f 23 e3 7b 3f
       0.9816322 0.9734751 0.95260286 0.9839346
0003d0 d2 2f 7e 3f 57 2d 82 3f 91 48 82 3f d7 52 83 3f
       0.9929172 1.0170087 1.0178396 1.0259656
0003e0 bc b5 80 3f d9 37 81 3f d2 72 7d 3f d8 dd 7a 3f
       1.0055461 1.0095168 0.99003327 0.97994757
0003f0 7d d6 84 3f 0a 63 79 3f fb f9 79 3f 13 29 78 3f
       1.0377957 0.97416747 0.97647065 0.96937674

bias f4 [12544]
000000 5d 0d 16 3d a1 69 4a 3d 07 35 8b 3d 21 fd 55 3d
       0.036633838 0.04941714 0.067972235 0.052243356
000010 20 30 66 3d c9 0e 51 3d 95 d3 91 3d b6 65 85 3d
       0.05619824 0.05103949 0.07120434 0.065135404
000020 89 48 a0 3d 67 22 92 3d 93 1a 89 3d e1 5a 8a 3d
       0.07826335 0.07135468 0.06694522 0.06755615
000030 63 46 6b 3d f3 d8 15 3d a1 b1 41 3d b7 74 33 3d
       0.057440173 0.036583852 0.04728854 0.04381248
000040 bd d2 7c 3d 8e b0 8c 3d 23 ea 98 3d ba b8 29 3d
       0.061724413 0.06869613 0.07466533 0.041435935
000050 61 f9 54 3c 85 4d e3 3c ec 70 61 3d 45 91 fb 3c
       0.01299891 0.027746925 0.05503933 0.030708918
000060 27 72 6b 3d 03 9a 82 3d af 8d 87 3d f0 54 bf 3c
       0.05748191 0.06377032 0.06618821 0.023355931
000070 3a 3b 19 3d ea dd 84 3d 33 91 62 3d 10 32 6b 3d
       0.03741 0.06487639 0.055314254 0.05742079
000080 a5 dd 53 3d 0f 35 d7 bb 5a ea cb bc a1 25 0f bd
       0.05172505 -0.0065676044 -0.024892021 -0.034947995
000090 03 27 98 bc dc 72 c1 bb b2 a1 9a 3b 04 54 a7 3c
       -0.01857329 -0.005903585 0.0047189826 0.020425804
0000a0 09 4e 1c 3d d0 7a 3d 3d ec 97 47 3d 31 84 74 3d
       0.038160358 0.0462597 0.04872887 0.05969638
0000b0 7f 46 36 3d a2 7b 6e 3b 6a 7a c1 3b fd ad 1b bd
       0.044500824 0.003638961 0.0059044855 -0.038007725
0000c0 b9 62 28 bd 29 e4 5b bd c9 32 1a bd 4c 28 22 bd
       -0.041109774 -0.053684387 -0.03764609 -0.03958921
0000d0 ea 3d e5 bc c2 8b 87 3c 72 80 e0 3c d5 9c f6 3c
       -0.027983624 0.016546134 0.027404997 0.03010408
0000e0 ab ab 43 3d f3 66 89 3d 5c a9 0a 3d ca 1d c0 3c
       0.047771137 0.06709089 0.03385292 0.023451705
0000f0 3f f3 e5 bc bc 9b 35 bd f9 37 1b bd e9 d1 ae bc
       -0.02807009 -0.044337973 -0.037895177 -0.021340327
000100 d5 14 20 bd 1b cc d2 bc 2e 38 e5 bc 37 68 a0 3c
       -0.039082367 -0.02573209 -0.02798089 0.019580944
000110 55 66 ac 3c 36 d8 0c 3d a5 94 68 3d 62 c4 32 3d
       0.02104489 0.034385882 0.056782383 0.043644316
000120 b5 a6 8d 3c 68 f8 7b bc 86 60 10 bd 28 db c1 bc
       0.017291406 -0.015379049 -0.035248302 -0.023664072
000130 a9 8a ed bc 79 ac dd 3c 60 71 32 bc 59 bb 96 bb
       -0.028996782 0.02705978 -0.0108912885 -0.0045999703
000140 71 53 06 3c bb 50 45 3d 29 c0 6d 3d 80 72 57 3d
       0.008198605 0.048172694 0.058044586 0.05259943
000150 04 36 8a 3d 46 a3 a1 3d 63 8e c9 3c af 1f 6d bc
       0.06748584 0.0789247 0.024604028 -0.014472886
000160 00 2f 04 bd 82 76 ab bc 2c fd c1 3c 25 e7 89 bc
       -0.032271385 -0.020930532 0.023680292 -0.016833851
000170 45 f7 c0 3a 4c 73 1a bd c6 81 aa bb 1b 17 06 3d
       0.001472213 -0.037707612 -0.0052034585 0.03273688
000180 3e e6 08 3c 7c ac 20 3d 00 d3 6f 3d 9d 4d 89 3d
       0.008355675 0.039226994 0.058550835 0.06704257
000190 f7 ef 32 3c 45 53 cf bb e2 e1 20 bd ad 1e 99 bc
       0.01092147 -0.006327065 -0.03927792 -0.018691385
0001a0 26 4e 28 bd 16 4b 28 bd 39 c7 0c bd 6f 0e cc 3c
       -0.041090153 -0.041087233 -0.03436968 0.024909226
0001b0 d3 a7 83 3c ab 85 39 bc 15 c1 ba 3c fc 8a 06 3d
       0.016071236 -0.011323373 0.022797147 0.03284739
0001c0 e9 6b 6b 3d b7 99 81 3d 66 b8 cf 3c 8b bb b0 bc
       0.057475958 0.06328147 0.025356483 -0.021573802
0001d0 c0 91 68 3c 6a 79 7d bc d6 16 8d bc 93 3b 23 bd
       0.014194906 -0.015470842 -0.017222803 -0.039851736
0001e0 bc 90 03 bd 0e 3b 95 bc d3 b2 7c bc 72 f4 dd 3c
       -0.03212045 -0.018216636 -0.015423494 0.0270941
0001f0 91 ed bc 3c d2 0d db 3c b4 c0 7d 3d 1b 86 73 3d
       0.0230625 0.026739988 0.061951354 0.059454065
000200 bc a5 bc 3c ea 1a c0 3c be c4 cf bc d6 50 28 3c
       0.023028247 0.023450334 -0.025362369 0.010273179
000210 b0 b1 b4 3b 02 c9 91 bc e9 9d ed bc 5d 8e 04 bc
       0.005514346 -0.017796043 -0.029005961 -0.008090583
000220 93 0f 4c bb 31 2a 9a 3c 5e 1d 29 3d e5 a7 35 3c
       -0.0031137213 0.018818947 0.041287772 0.011087392
000230 7f 1c 1a 3d f2 28 9d 3d 03 3e 3d 3c 51 29 07 3c
       0.037624832 0.07673825 0.011550429 0.008249597
000240 1d ec 07 3b 55 f3 1a bd a3 03 05 bd f1 f3 0a bd
       0.00207401 -0.037829716 -0.03247417 -0.033924047
000250 83 3d ae bc 82 2a 8d 3b 40 94 83 3c 98 27 77 3c
       -0.021269565 0.004308046 0.016061902 0.0150851235
000260 15 b0 f7 3c 61 d4 d3 3c dd bf 4e 3d a4 f7 64 3d
       0.03023533 0.025858106 0.050475944 0.05590023
000270 f8 72 5e 3c 75 d2 4b 3b c8 1f 14 bd e4 20 42 bd
       0.013577215 0.0031100784 -0.03616312 -0.04739465
000280 65 b5 fe bc 86 1c 5c bc d2 f5 cc 3b d2 55 61 3c
       -0.031092355 -0.013434535 0.00625489 0.013753371
000290 73 d9 0a 3c b8 10 64 3d 8f 33 5d 3d 85 49 db 3c
       0.0084746955 0.055680007 0.05400425 0.026768455
0002a0 fe 61 62 3d ed ea 88 3d cb 4c e6 3c c2 ad 74 3c
       0.055269234 0.066854335 0.02811279 0.014934005
0002b0 18 eb 81 3b c4 9a d4 3c e4 ca 80 bc f7 49 de 3b
       0.003964793 0.025952704 -0.015721746 0.0067837196
0002c0 ec a9 05 3d fd e9 4f 3d cb ae 2c 3c 14 ff 4a 3d
       0.032632753 0.050760258 0.010539721 0.049559668
0002d0 54 89 36 3d 62 5d 9e ba 52 9e a1 3c 20 f1 b6 3c
       0.04456456 -0.0012082274 0.019728813 0.022331774
0002e0 31 6a 81 3c 5f 08 c0 3c d6 48 0c 3d 51 1c e2 3c
       0.015797706 0.023441492 0.03424915 0.027601393
0002f0 52 5a 57 3c 70 02 41 bb 43 0c 49 3c 71 78 05 3c
       0.013144093 -0.0029450916 0.01227099 0.008146391
000300 f8 55 5f 3c 8f 18 46 3c 44 2d 97 3c a2 3a 2a 3d
       0.013631336 0.012090816 0.018454202 0.041559823
000310 f1 91 9f 3c 61 3d 1d bb 12 c8 1a ba d3 98 90 bb
       0.01947877 -0.0023992884 -0.00059044466 -0.0044127493
000320 17 a7 bf 3b 25 5f 9b 3c 4e da b5 3c f6 93 c4 3b
       0.005848776 0.018966267 0.022198822 0.0059990836
000330 02 14 f9 bc 33 43 b4 ba 6c 75 f1 bb ef 84 40 3d
       -0.030405048 -0.0013752937 -0.007368734 0.047001775
000340 ef a2 19 bc 10 77 fa 3c 49 aa 65 3b f9 f9 34 3c
       -0.009377225 0.030574352 0.0035044125 0.011045926
000350 cd 60 1d 3c 0a 0a 9b bc 0b 48 eb bc 8e b2 a1 bb
       0.009605599 -0.018925685 -0.028720876 -0.0049346155
000360 0e 0a c1 3c 54 e2 26 bc 20 35 b9 3c c1 18 09 bd
       0.023564365 -0.010185797 0.02260834 -0.033470873
000370 f6 0d 87 bc d6 ab 08 bd 00 84 11 bc 59 95 b4 bc
       -0.01648615 -0.033367 -0.008881569 -0.02204387
000380 52 f6 99 3c fb de 05 bc bb d9 24 bc 38 c7 9b bc
       0.018794212 -0.0081708385 -0.010061677 -0.019015893
000390 b1 d4 41 bc eb a3 a0 bb 21 33 94 bb 1f d9 06 3c
       -0.011830495 -0.004902353 -0.0045226966 0.008230477
0003a0 e8 a2 f6 3c 33 ec 5b 3c bf 03 a7 ba d9 46 58 bc
       0.030106977 0.0134230135 -0.0012742205 -0.013200485
0003b0 61 55 d8 bc 43 d0 58 bc c7 be cf bb a5 d7 63 bc
       -0.0264079 -0.013233247 -0.006339881 -0.013906394
0003c0 89 d8 ba bc ab 51 82 bc a8 40 28 bd c0 39 40 bc
       -0.02280833 -0.015908083 -0.041077286 -0.011732519
0003d0 7f 2d 89 bc 95 1e e7 3c f0 c9 a5 3c ab 6a fe 3c
       -0.016745327 0.028212825 0.020237893 0.031056723
0003e0 a6 e6 48 3c 28 20 70 bc b3 fc 07 bc 9f 62 48 bc
       0.012262022 -0.014656104 -0.008299994 -0.012230544
0003f0 df eb 46 3d c2 29 76 bc b3 27 cc bc c5 9a a6 bc
       0.048564788 -0.015024604 -0.024921274 -0.020337472

running_mean f4 [12544]
000000 ad 5a 57 3e 6b 64 b0 3a 9e 15 20 3e 54 4d f2 3d
       0.21030684 0.0013457661 0.15633246 0.118311554
000010 19 80 49 3e 08 46 81 be 69 09 05 bd e8 1f 16 be
       0.19677772 -0.25248742 -0.032479677 -0.14660609
000020 22 e4 d9 3d 65 f9 b3 3d 3c 7f 11 be 87 35 f8 3d
       0.10639216 0.087878026 -0.14208692 0.121195845
000030 e0 c1 7f bd 8d 6d 33 3e da c5 1b 3e 1f 54 4d bd
       -0.062440753 0.17522259 0.15212193 -0.050129052
000040 5b 37 84 3e b6 31 11 bd 1b e8 1f be 92 68 9c 3e
       0.25823483 -0.0354478 -0.15615885 0.3054853
000050 46 f7 81 3e 51 17 92 3e 83 23 98 3e d0 11 fb 3c
       0.25383967 0.28533414 0.29714593 0.030648142
000060 ab cd a1 bd 21 cb 3e 3e ff 59 57 be 93 18 11 bb
       -0.07900556 0.18632175 -0.21030425 -0.0022139892
000070 89 b6 2f 3d 89 10 07 3e cc 06 8a be 80 5b 83 3e
       0.04289869 0.13189901 -0.2695831 0.25655746
000080 c7 39 f8 bd c9 dd 35 be e7 64 b2 ba 6b 32 cb bd
       -0.12120395 -0.17760386 -0.0013610394 -0.09921726
000090 08 97 aa 3d 38 a2 c9 3d 2e a0 5f 3e fc 33 f6 bd
       0.08329588 0.09845394 0.21838447 -0.12021634
0000a0 14 df 12 be 27 e0 c0 3d 46 80 2a be 8a 3b 96 3e
       -0.1434291 0.09417754 -0.16650495 0.293423
0000b0 63 bf 8d 3e 41 1f b8 3e 79 1b 8b 3e c2 b6 c2 bc
       0.2768508 0.35961345 0.27169397 -0.023768786
0000c0 df 66 08 3e f3 cb dd 3d 82 7e ff 3d 6c 13 46 3e
       0.13320492 0.10829916 0.12475301 0.19343346
0000d0 05 03 21 3e 71 e8 18 be f9 54 8e be 18 aa e9 3d
       0.15723808 -0.1493242 -0.27799204 0.11409396
0000e0 4b a9 a8 bc 2e 74 b0 bd da 57 27 be 68 b5 77 be
       -0.020588538 -0.086159095 -0.16342106 -0.24190295
0000f0 5d f9 38 be 59 46 c7 3d 53 b9 97 3e 2c 83 b3 bd
       -0.18063875 0.097302146 0.2963358 -0.087652534
000100 a7 0c 74 bd 6a be 85 be 95 35 96 be bd 57 5c 3e
       -0.05958238 -0.26121837 -0.29337755 0.21517844
000110 1a 9b 80 be 6d a2 cb 3e 46 29 5e bd f3 5a c6 3d
       -0.25118333 0.3977236 -0.05423858 0.09685316
000120 7e cb 63 3e b2 00 93 be 82 f9 e7 bd a9 e8 df bd
       0.22245595 -0.28711468 -0.11326887 -0.10933048
000130 2b 99 b8 3d 13 47 a5 3c 77 5c 30 3d 5a 54 6c 3d
       0.090135895 0.020175492 0.04305693 0.05769763
000140 e6 50 7c be 54 01 7b 3e bd 65 e1 3d 85 38 8d be
       -0.24640235 0.24512225 0.11005733 -0.27582183
000150 de ec aa be 39 4f 14 be ad ff 53 be 78 19 c2 bd
       -0.3338384 -0.14483346 -0.20703001 -0.09477514
000160 a4 45 61 3e c8 69 c7 be 7f ca 09 3e cd d2 c0 be
       0.21999222 -0.38947892 0.13456152 -0.37660828
000170 b2 dc fa bd 8c 22 76 3e 8d d4 22 be 90 1a d4 3d
       -0.122491255 0.24036616 -0.15901394 0.10356629
000180 2e c9 6a be 2b 20 8c 3e c6 02 46 be e9 09 76 bd
       -0.22928306 0.27368292 -0.19336995 -0.060068045
000190 ba 92 8d be 93 bf 35 3e 6e 1c 06 3e 73 55 f6 bd
       -0.27651006 0.17748861 0.13096783 -0.12028017
0001a0 69 3b 23 bd 09 ef fa bc 45 ac 2c be 05 de 85 be
       -0.03985158 -0.030631559 -0.1686259 -0.2614595
0001b0 28 22 37 bd d5 86 3b 3e a5 90 86 3c 65 5c e6 bc
       -0.04471031 0.18313153 0.016426394 -0.028120229
0001c0 50 e2 17 3d f7 9c a0 be 46 10 8a 3e 44 7e 2f bc
       0.037081063 -0.31369755 0.2696554 -0.010711256
0001d0 5e 61 74 be 25 e9 3a be 4d e5 c3 3d f1 b2 24 3e
       -0.23865268 -0.18253 0.0956522 0.16083886
0001e0 ea bb bd 3d 8f a7 42 3e 65 0f 8d 3d a1 7c 69 3e
       0.092643574 0.19009231 0.06887702 0.22801448
0001f0 70 ed 51 be b9 f3 5b 3c dd 23 53 3e fb 4d 48 be
       -0.20500731 0.013424807 0.2061915 -0.19560997
000200 b7 2e 65 3e 34 00 6f 3e 0d da be be 0e 48 f2 3d
       0.22381102 0.23339921 -0.37275735 0.118301496
000210 85 17 6c 3d d9 c0 1a 3e 49 68 60 be e5 68 e5 bd
       0.057639617 0.15112628 -0.21914782 -0.11201648
000220 47 c0 6e be a1 98 97 3e 4d 69 7e be 51 64 51 3d
       -0.23315535 0.29608634 -0.24844857 0.05112106
000230 42 81 f5 3d 7b 6a 0b be 85 a0 4a 3e 6f 74 ce be
       0.119875446 -0.13614838 0.19787796 -0.40323207
000240 ed 3b ff 3d f2 bc 4b 3e 5f 26 45 be 2e 71 a1 3d
       0.12462602 0.19896296 -0.19252919 0.078829154
000250 fa d0 9b 3e e0 df 3c be 1d 56 54 be 4b 70 1c be
       0.30432874 -0.18444777 -0.20735975 -0.15277211
000260 85 9b 78 3e 54 37 a3 be 96 37 46 bd 02 49 ab 3d
       0.24278076 -0.3187815 -0.048392855 0.083635345
000270 e7 9d 6f 3e a3 9e 17 be fd 00 51 3e 5e f3 41 3e
       0.23400079 -0.14806609 0.20410533 0.18940493
000280 8e 43 d9 3c 7f 1d 08 3e 61 c0 87 be 6b 04 7a 3e
       0.02652147 0.13292502 -0.2651396 0.24415748
000290 2e f4 da 3d 14 a5 46 be 32 06 74 be 48 3b a8 3e
       0.10691105 -0.1939891 -0.23830488 0.32857728
0002a0 29 59 10 3e b2 53 92 3e 44 75 05 3e fc fe ea 3c
       0.14096512 0.2857948 0.13033015 0.02868604
0002b0 f2 05 5a bb fb 04 98 ba 02 db 68 3d 36 64 97 be
       -0.0033267704 -0.0011598164 0.056849487 -0.29568642
0002c0 30 77 a2 3d 6a 2f a6 bd d9 35 36 3e bc 6a 81 be
       0.079328895 -0.08114512 0.17793979 -0.25276744
0002d0 1f 0c 2c be fe a8 fb 3d fa 56 5d 3e 8a 0f 39 3e
       -0.16801499 0.12288092 0.2161521 0.18072334
0002e0 c2 e8 92 3d e2 c2 4c 3e 01 43 12 be f8 f6 18 be
       0.07173301 0.19996217 -0.14283372 -0.14937961
0002f0 29 90 57 3e 57 fb a2 3e d7 1e 78 3d 5b 93 7c 3e
       0.21051086 0.31832382 0.060576286 0.24665587
000300 3c 15 0f 3d 69 eb 29 bc 18 a5 53 be 50 89 d1 3d
       0.03493236 -0.010371068 -0.20668447 0.102312684
000310 5a 0d 59 bd b8 18 ae 3c 47 d5 d1 bd 16 e9 57 3e
       -0.05299125 0.021252021 -0.102457576 0.21085009
000320 14 de c4 3d c4 e2 15 3e 41 1b 21 3e 3f cd 63 bd
       0.096126705 0.14637285 0.15733053 -0.05561566
000330 cb 32 69 bd 58 77 8c be 81 b5 45 be c1 a1 8a 3e
       -0.056933206 -0.27434802 -0.1930752 0.27076533
000340 d3 fa 30 3d ea 8e eb 3d c0 3e 1d 3e 72 2c a9 3d
       0.043207955 0.11501868 0.15355968 0.082604304
000350 29 6f d0 3d bd eb 1f 3e fe 52 90 be 8f 5e c0 3d
       0.10177452 0.15617271 -0.28188318 0.093930356
000360 85 1f 46 3e 4f 13 5a 3c 9d f9 e3 3d a0 a7 2e be
       0.19347961 0.013310268 0.11131594 -0.17056131
000370 7c 9e 64 be c6 07 20 bd bd f2 3d bd dc 50 ae be
       -0.22326082 -0.039069913 -0.04637407 -0.34046066
000380 66 0a a4 be 69 13 a7 3e 53 43 8f 3e 2a 3b ea bd
       -0.32039183 0.32631996 0.27981052 -0.11437066
000390 6e 9a 2f be 77 1d 77 3d 05 c2 7f be 73 0a bb 3d
       -0.17148754 0.060330834 -0.24976356 0.091328524
0003a0 70 64 93 bd a2 17 29 3e 25 1d f9 be 98 bc 33 be
       -0.07196891 0.16512921 -0.48655048 -0.17552412
0003b0 e1 b9 f0 3c 1b 5e 01 be 88 78 aa 3d e0 be 15 3e
       0.029385509 -0.12633555 0.08323771 0.14623594
0003c0 2e a1 71 3e c6 5f a5 bd 76 95 ab 3c 03 5d 97 bd
       0.23596641 -0.08074908 0.020945292 -0.073907875
0003d0 26 10 bd bd 8e 9b 42 bd 8b ee 8b bd 93 41 ca 3e
       -0.09231596 -0.04751163 -0.06832608 0.39503154
0003e0 73 c9 03 3d 66 06 9e 3e df ef 3c 3d 12 51 14 3e
       0.03217454 0.30864257 0.046127196 0.14484051
0003f0 a0 98 9a 3d aa 2e 9d bc 34 5d 53 3e d4 b3 95 3e
       0.07548642 -0.01918729 0.20641023 0.2923876

running_var f4 [12544]
000000 6a a0 a4 3c 8e 6b c1 3c 05 26 10 3d 88 e8 48 3d
       0.020096023 0.023610856 0.03519251 0.049049884
000010 ff 85 71 3c 57 e8 18 3d 8e 6d 57 3d 25 7a 26 3d
       0.01474142 0.03733095 0.052594714 0.04064383
000020 ae 85 29 3d ed 07 b7 3c 9b a3 19 3d 66 19 35 3d
       0.041387253 0.022342646 0.037509542 0.044213675
000030 9a 9a 64 3c 84 13 2a 3d b7 de f8 3c 24 ec d8 3c
       0.0139528755 0.041522518 0.030379636 0.026479788
000040 14 b3 cd 3c 42 01 dd 3c 5d 8b 06 3d 86 19 8a 3c
       0.025109805 0.026978139 0.03284775 0.016857874
000050 34 fb 01 3d 9e c0 b5 3c e0 26 84 3c 5d 48 3e 3d
       0.031733707 0.022186574 0.016131818 0.04645573
000060 81 74 cf 3c 1f 00 ad 3c 64 5f 3f 3d 13 4d de 3c
       0.025324108 0.021118222 0.04672183 0.027136361
000070 73 d3 e3 3c 70 be 09 3d fb 4f 2e 3d 00 5a 88 3c
       0.027810788 0.03362888 0.042556744 0.016644478
000080 7f c9 0c 3d 63 e8 03 3d 85 c7 2f 3d da f4 38 3d
       0.03437185 0.032204043 0.042914886 0.045155384
000090 da dc 55 3d 5f 00 a5 3c b7 f2 fa 3c 3f c2 07 3d
       0.052212574 0.020141779 0.030633314 0.033144232
0000a0 5b 28 0d 3d b6 c8 cb 3c e5 93 09 3d 20 a7 ab 3c
       0.034462314 0.02487598 0.03358831 0.020953715
0000b0 13 3d 94 3c b5 8c d0 3c b7 d2 3c 3d a2 8b 22 3d
       0.018095529 0.02545772 0.04609939 0.039683945
0000c0 bd ea db 3c 52 e6 1a 3d 06 7c fe 3c b9 8e 28 3d
       0.02684533 0.037817307 0.031064998 0.041151736
0000d0 cc 71 b7 3c d1 a4 41 3d 4b 07 d6 3c c3 bf eb 3c
       0.02239313 0.04727632 0.026126524 0.028777963
0000e0 af cb aa 3c 41 d0 cc 3c 6b d7 11 3c ef ba d9 3c
       0.020849077 0.025001647 0.008901457 0.026578395
0000f0 53 f3 0c 3d 81 72 05 3d e2 a7 24 3d 8e 64 e0 3c
       0.03441174 0.032579903 0.040199168 0.027391698
000100 67 34 16 3d a3 ab e3 3c 69 38 69 3c 0d 6f a2 3c
       0.03667107 0.027791804 0.014234641 0.019828344
000110 5d 82 d8 3c 5f df 0b 3d d2 92 f9 3c f6 fa 09 3d
       0.02642935 0.03414857 0.030465517 0.0336866
000120 d7 22 62 3c 57 4c a0 3c 3f 6e c4 3c 49 af 17 3d
       0.013802252 0.019567652 0.02397835 0.0370324
000130 8d 12 05 3d a1 0d e1 3c df 99 10 3d 14 cc 0e 3d
       0.032488395 0.02747232 0.035302993 0.034862593
000140 bd 0d 33 3d f9 b6 ff 3c b2 9b f3 3c 40 e0 47 3d
       0.043714274 0.031215178 0.029737327 0.048797846
000150 79 57 b6 3c 4f a4 e0 3c 3a 22 44 3d 36 b8 32 3d
       0.022258507 0.027422098 0.047884203 0.04363271
000160 30 66 4a 3d 2a 27 bc 3c ba b0 f4 3c 2a 4b 11 3d
       0.04941386 0.022967894 0.029869426 0.035472073
000170 42 20 e0 3c 2e 02 a2 3c 92 0a 2f 3d ab 00 8e 3c
       0.027359132 0.01977643 0.04273469 0.017334303
000180 5c aa f1 3c aa 00 d9 3c b2 4f c6 3c da fd 00 3d
       0.029500179 0.026489574 0.024207924 0.03149209
000190 af 65 e6 3c 36 19 64 3c 11 ca bc 3c 36 e2 32 3d
       0.028124658 0.013922026 0.023045572 0.043672763
0001a0 d1 20 ed 3c 8a 40 0f 3d a5 d3 68 3c 41 36 f2 3c
       0.028946312 0.03497366 0.014210616 0.029566886
0001b0 c6 ac 25 3c d1 cc 1e 3d 92 fb 1c 3d 9a 6c 1b 3d
       0.010111993 0.038769547 0.038325854 0.037945367
0001c0 5b d7 12 3d 81 9b 4e 3c 9d ae ef 3c 2b ce 0e 3c
       0.03584991 0.012610317 0.029258067 0.008716146
0001d0 5f 0a 71 3c 45 d6 aa 3c e1 ff ba 3c 8d 7e 03 3d
       0.014711945 0.020854125 0.02282709 0.03210311
0001e0 df 0d fd 3c 37 6d 0d 3d 36 08 2a 3d e4 36 f1 3c
       0.030890403 0.034527984 0.041511737 0.02944512
0001f0 4e b1 28 3d d5 47 5f 3c aa d5 94 3c 62 3c 0e 3d
       0.041184716 0.013627966 0.01816829 0.034725554
000200 a8 67 be 3c a5 67 fb 3c d5 b3 fa 3c 18 17 ad 3c
       0.023242787 0.03068907 0.030603329 0.021129176
000210 3f de a5 3c c7 3d 43 3d e4 9e fc 3c d9 9e 1d 3d
       0.020247577 0.047666337 0.030837484 0.038481567
000220 d8 c6 14 3d 89 87 d5 3c 08 43 d3 3c dd d2 c7 3c
       0.036322445 0.026065605 0.025788799 0.02439254
000230 a3 35 df 3c 13 6a 1a 3d 50 ab 11 3d ee 29 24 3d
       0.027247256 0.037698817 0.035563767 0.04007905
000240 49 d5 24 3d ff de 8d 3c 14 eb e2 3c 8e 41 eb 3c
       0.040242467 0.017318247 0.027699985 0.028717782
000250 66 63 0d 3d d0 ed 22 3d 8f a7 06 3d bf c8 1b 3d
       0.03451862 0.039777577 0.03287464 0.038033243
000260 9c 13 28 3d 79 e4 9e 3c 0a 70 82 3c 35 2b 3a 3d
       0.041034326 0.019396054 0.015922565 0.04545136
000270 79 3a ad 3c 31 26 90 3c 8f b4 af 3c 57 1e e1 3c
       0.021146046 0.017596336 0.021448402 0.027480287
000280 31 65 a5 3c df bd 08 3d 8f 91 53 3c e9 cd 11 3d
       0.020189853 0.0333842 0.012913122 0.03559676
000290 53 12 81 3c df 4b 44 3d 86 b4 cb 3c 0e 52 d9 3c
       0.015755808 0.04792392 0.024866354 0.026528385
0002a0 f6 1c 16 3d 6a 89 4d 3d 8c 45 36 3d c2 62 b0 3c
       0.036648713 0.050179876 0.04449992 0.021531466
0002b0 e7 4b fb 3c 35 fc f8 3c 93 49 bb 3c 7d 8c 86 3d
       0.030675841 0.0303937 0.022862231 0.06569765
0002c0 d2 bc da 3c b8 59 2a 3d 29 fb 8c 3c 01 4f 05 3d
       0.026701365 0.04158947 0.017209606 0.032546047
0002d0 dd b4 bb 3c 57 58 db 3c c6 e0 04 3d ce e1 11 3d
       0.02291339 0.026775522 0.032440923 0.035615735
0002e0 d6 93 d1 3c 31 34 c2 3c ac aa df 3c c1 45 27 3d
       0.025583189 0.023706527 0.027303062 0.040838007
0002f0 a6 b1 17 3d fe e5 c3 3c 8c fd ad 3c da 10 aa 3c
       0.037034653 0.02391338 0.021239065 0.020759989
000300 64 25 05 3d bb 98 0d 3d 5b cc 15 3d f0 92 64 3c
       0.03250636 0.034569483 0.03657184 0.013951048
000310 45 02 d1 3c 8c 0c 15 3d 07 87 21 3d f5 b4 f6 3c
       0.025513778 0.03638892 0.039435413 0.030115584
000320 86 55 00 3c e7 84 ce 3c 8e 6f 10 3d 93 63 05 3d
       0.00783289 0.025209857 0.035262637 0.032565664
000330 91 7e 49 3d 06 25 fd 3c ce 98 b2 3c fb 34 ee 3c
       0.04919297 0.030901443 0.021801379 0.029077997
000340 97 25 99 3c 34 99 39 3d c1 36 3f 3d 40 2a 9c 3c
       0.018694682 0.04531212 0.046683077 0.019063115
000350 69 66 fa 3c 16 2f 7a 3c 1a 88 3b 3d 95 16 45 3c
       0.030566411 0.015270015 0.045784093 0.01202931
000360 6d 20 16 3d 9a 51 02 3d 76 f4 ac 3c 60 63 d8 3c
       0.036652017 0.031816103 0.021112662 0.026414573
000370 76 4c 86 3d 35 7e 5c 3c 3c 0b d4 3c c6 fd 02 3d
       0.065575525 0.0134578245 0.025884263 0.0319803
000380 9a 50 19 3c c8 ef 03 3d 65 ad c3 3c 5a 19 b6 3c
       0.009357596 0.032211095 0.023886392 0.022228885
000390 15 84 57 3d e0 74 33 3d ec cb 15 3d 75 11 9d 3c
       0.052616198 0.043812633 0.03657143 0.019173363
0003a0 e4 32 29 3d 70 65 0d 3d d9 b7 ba 3c cf c0 2a 3d
       0.0413083 0.034520566 0.022792744 0.041687783
0003b0 f3 5b 39 3d 5f 0e c4 3c cc ed f2 3c be 01 19 3d
       0.045253705 0.023932634 0.029654406 0.037355177
0003c0 da 39 f3 3c a5 de 0e 3d 71 a6 06 3d 03 cb 3a 3d
       0.029690672 0.0348803 0.032873575 0.045603763
0003d0 65 cf ba 3c 84 77 fe 3c 62 83 07 3d 55 6d df 3c
       0.022803972 0.031062849 0.03308428 0.027273813
0003e0 dc 5c e2 3c bd f1 c9 3c d7 ba 03 3d d0 ef c4 3c
       0.02763217 0.024651403 0.032160606 0.024040133
0003f0 e9 de de 3c dd 41 10 3d fb b2 d9 3c e3 4e f6 3c
       0.027205901 0.035219062 0.026574602 0.030066913

weight f4 [64, 32, 3, 3]
000000 e0 f6 05 3d 72 40 67 bc d5 77 af bc 0e 41 87 bc
       0.03270614 -0.014114486 -0.021419445 -0.016510513
000010 00 89 23 bd 7c 56 14 bd 22 a7 62 bd 3d b3 e7 3b
       -0.039925575 -0.03621529 -0.05533517 0.0070709274
000020 ca 25 c7 3c b2 cc 05 bc a1 ff 7f bc c6 16 b2 3c
       0.024310011 -0.008166479 -0.0156249115 0.021739375
000030 72 26 11 bd cb 4e 2e 3d 96 e3 14 bd 9f bb f6 3c
       -0.035437055 0.04255561 -0.036349855 0.030118762
000040 c6 02 f8 bc f6 aa 9a bb 2b d2 07 3d 04 38 83 bc
       -0.03027476 -0.004720087 0.033159416 -0.016017921
000050 60 27 44 bd f4 53 d7 3c 52 e4 75 bd 18 f1 11 3d
       -0.047889113 0.02628515 -0.060032196 0.035630316
000060 83 5b 12 bc 8b 77 00 bd 0e 16 81 bc 17 ab 48 bd
       -0.008932951 -0.031364005 -0.015757587 -0.04899129
000070 2d 2b 1f bd 74 c2 9c bc 8e 41 cd 3c 7b 6c 8b bc
       -0.038859535 -0.019135691 0.025055673 -0.017019501
000080 e5 f8 1e bd 00 f8 1f 3d fd 57 35 bd b1 d7 35 bd
       -0.038811583 0.03905487 -0.044273365 -0.044395152
000090 3d db ab bc 6e d4 83 b8 53 21 50 bd 6a 0e 86 3d
       -0.020978564 -6.286135e-05 -0.05081303 0.06545718
0000a0 ea bf 88 bc aa 23 18 3d 08 ba 3e bc ec d8 46 3d
       -0.016693074 0.037143387 -0.011641033 0.048546717
0000b0 90 5f 14 3d 96 dd 0c 3d 16 05 2d bc 89 e8 42 3d
       0.036223948 0.03439101 -0.010560295 0.047585044
0000c0 e0 0e 79 3d f4 bb 4d bc 4c 8b 60 bd 5d b3 fa 3a
       0.0608052 -0.012557019 -0.054820344 0.0019126941
0000d0 a0 ae 87 3b 95 48 8c 3c b4 6d 21 3d 9e 99 be bc
       0.00414069 0.017124454 0.03941126 -0.02326661
0000e0 58 3a 48 bd 26 8a 31 bb 04 82 21 3c 3b 45 9d ba
       -0.048883766 -0.00270904 0.009857658 -0.0011998782
0000f0 78 c0 4a bd b5 71 59 bc 7e f6 23 bc 0f 19 0a bd
       -0.04949996 -0.013271739 -0.010007499 -0.033715304
000100 36 a0 81 bc c3 dc 68 3c 72 fd 41 3d 58 06 eb 3c
       -0.015823465 0.01421279 0.047360845 0.028689548
000110 fb e7 35 3c bb 97 1a 3d 3a ec 19 3d 89 cd 31 bd
       0.011102672 0.037742358 0.0375788 -0.043408904
000120 90 d5 1d 3d e4 52 2b 3d 9f 63 2f 3d e0 90 3c bd
       0.038533747 0.041827098 0.042819615 -0.0460366
000130 8c a7 b7 ba c9 c8 85 bc 2a d8 15 3a 86 f5 13 3c
       -0.0014011725 -0.016331093 0.000571611 0.009030705
000140 a8 43 34 bd a3 e3 2b 3d 65 82 92 3c 1c 57 45 bd
       -0.044009835 0.04196514 0.017884443 -0.048178777
000150 90 fb 48 3d 32 ff 97 bb 25 7c ea 3c 93 89 d5 bc
       0.049068034 -0.004638576 0.02862365 -0.026066577
000160 43 0d 3b 3c 7d 34 f5 3c 8a d5 47 bd 54 6b a6 3c
       0.011416736 0.029932255 -0.04878763 0.02031485
000170 c0 e8 34 bb ee 3f 17 bd 36 f5 46 bd 10 bd 87 ba
       -0.002760455 -0.036926202 -0.048573695 -0.0010356028
000180 60 18 a2 bc 12 65 45 bd 62 e0 09 bd 61 1d 62 3d
       -0.019787014 -0.04819209 -0.033661254 0.0552038
000190 61 bd 67 bc 26 e6 94 bc 66 8b 3d bd 48 51 f9 3b
       -0.014144273 -0.01817615 -0.04627552 0.0076085664
0001a0 54 6a 74 3b 7a 14 be 3c bc dd 2c bd b7 74 7c bc
       0.0037294822 0.023203123 -0.04220365 -0.015408686
0001b0 05 75 4c bd 7c 96 c6 3b c3 f5 90 bb 11 2a 3e 3d
       -0.049916286 0.0060604196 -0.0044238283 0.046426836
0001c0 a3 7f 71 3d b1 fb f6 bb b6 f1 c4 bc 97 1d 29 bc
       0.058959614 -0.007537328 -0.024041038 -0.010321996
0001d0 66 9f c6 3b b3 4e 94 bc 18 f8 c9 3c 66 cf cb 3c
       0.0060614822 -0.018103933 0.024654433 0.024879169
0001e0 49 e5 24 3c a6 98 03 bc 98 ac 81 bd 43 78 d9 3c
       0.0100644315 -0.008032 -0.06331748 0.026546603
0001f0 ca 3b 9e bc e3 de 23 3d 48 7d 6e 3d 31 9f 63 3c
       -0.019315619 0.040007483 0.058224946 0.013892935
000200 23 bd 0c bd ef 67 33 3c 39 03 32 3c de a3 ec 3c
       -0.034360062 0.010950073 0.010865026 0.028886732
000210 f4 2e c6 bc d8 e4 5c 3c 0c 28 07 bd 31 98 5a 3d
       -0.02419231 0.013482295 -0.032997176 0.053367797
000220 18 48 bd 3c fe cb 17 bc 8b a9 dd bc 9c 0a 3c 3d
       0.023105666 -0.009264944 -0.027058383 0.045908555
000230 d7 00 fb 3c cc 68 05 bd ad d2 c4 bc 52 e3 bd 3c
       0.030640049 -0.032570645 -0.02402624 0.023179684
000240 6b 98 e9 3c ff 5f 91 bd 81 15 dc bc f0 53 a2 bc
       0.028515061 -0.07098388 -0.026865723 -0.019815415
000250 4f fa 84 bc 3c 87 08 bd b6 e3 67 3d 74 9c 3a bc
       -0.016232638 -0.033332095 0.056613646 -0.01138984
000260 9c 14 9a ba 52 bb f4 bb e7 93 ed bc 1a 07 52 3d
       -0.001175541 -0.0074686194 -0.02900119 0.051276304
000270 1e b7 1e 3d 9a d1 21 bd 1e d8 f7 bb f4 27 6a 3d
       0.038748853 -0.039506532 -0.007563605 0.05716701
000280 59 78 00 3d 23 43 81 3d d5 04 d3 3b c8 29 35 bd
       0.031364772 0.063116334 0.006439785 -0.0442293
000290 0a 77 5e bb 43 fe dd 3b 93 82 0e 3b 13 38 00 bc
       -0.0033945465 0.006774695 0.0021745309 -0.007825869
0002a0 20 3c 0d bd cd 4d 11 3d 7b db a4 3d dd 72 04 bd
       -0.034481168 0.035474587 0.08049675 -0.032336105
0002b0 49 6c 9c 3b 9b e3 4e bd d1 14 a6 3c 66 7d d8 3c
       0.004773651 -0.05051003 0.020273598 0.026426982
0002c0 2c 91 56 3d 86 74 41 3d 3b fc a7 3c 6a 05 83 bd
       0.05238454 0.047230266 0.020506015 -0.06397517
0002d0 a4 55 e4 bc de 2e 44 3c c9 7b 3c 3c a0 d8 61 3d
       -0.027872868 0.011974065 0.011504122 0.05513823
0002e0 73 88 05 bc c5 54 7f bc a9 2b 2f bd 79 bf f4 3b
       -0.008150208 -0.0155841755 -0.042766247 0.0074691144
0002f0 c3 67 05 bc 43 15 97 bc 8f 40 ed 3b b8 03 3b bd
       -0.0081424145 -0.018442756 0.007240362 -0.045657843
000300 87 b1 19 bc 98 2c 10 bd da c8 7f bd f7 76 14 bd
       -0.009380705 -0.035198778 -0.062447406 -0.036246266
000310 1d 7c 09 bb 55 f0 38 3c e6 72 8c 3c 84 93 84 3b
       -0.0020978518 0.011287768 0.017144632 0.0040459055
000320 d7 75 4e bd a6 78 5b 3d 9f ea 64 ba 68 10 e2 3c
       -0.05040535 0.053581856 -0.0008732471 0.027595714
000330 01 ed 9c 3c 82 82 5f 3d 9c 16 53 bd 7f 02 31 bc
       0.019155981 0.05456782 -0.051535234 -0.010803818
000340 3c d1 04 bd 37 25 ac 3c 3e 58 cc bc eb be 98 bc
       -0.032426104 0.02101384 -0.02494442 -0.018645724
000350 b9 25 25 3d 6f 69 47 bd 46 07 9b 3c 16 37 6d bc
       0.04031918 -0.048684534 0.018924367 -0.014478466
000360 b7 ea 6b bd 6f 46 65 bc 9f 0d d8 bc b1 14 32 3d
       -0.05759689 -0.013993843 -0.026373683 0.043476764
000370 07 bd 5c bd b1 09 e5 bc 68 3b c4 3c e9 f1 e9 3c
       -0.053891208 -0.027958723 0.023954108 0.028557735
000380 b2 58 99 3c cf d9 43 3d c1 ec 9d bd 78 59 80 bd
       0.018719051 0.04781514 -0.07711173 -0.06267065
000390 c1 59 32 bd 68 40 62 3c 93 b2 b6 3c e6 af 0a bd
       -0.043542627 0.013809301 0.022301948 -0.033859156
0003a0 e9 25 03 3d 61 f2 ee bb 49 6a 1f bc ce b2 8c 3c
       0.032018576 -0.0072920774 -0.00972993 0.017175104
0003b0 ee 7c 30 bd 4b be 45 3d 6b 11 0f 3c 3c 57 39 bd
       -0.043087892 0.04827718 0.00873218 -0.04524921
0003c0 24 4c 59 3c 98 bb 32 bd 80 75 3e bd d5 f9 22 3d
       0.013262782 -0.043635935 -0.046498775 0.03978904
0003d0 5a 45 8c bb 76 67 7e bd e2 12 e5 bb c9 d3 59 3d
       -0.0042807283 -0.062110387 -0.0069907764 0.05318049
0003e0 40 38 10 bd b2 79 05 3d b3 32 99 bc 4e 63 8a bc
       -0.035209894 0.03258676 -0.018700933 -0.016893055
0003f0 17 11 84 3d 42 3d 7c bd 14 9e 19 3b aa 81 27 3d
       0.06448572 -0.061581858 0.002344017 0.04089514

bias f4 [32]
000000 47 b7 a3 3c 1e c2 1f bd 67 76 61 3d 29 27 ed bb
       0.019984854 -0.039003484 0.055044558 -0.0072373343
000010 9d 2a 1b bd ac 5a 3d 3d af ea 2b 3d 52 4c 2e bd
       -0.037882436 0.04622905 0.04197186 -0.042553253
000020 57 cb bf 3c 41 7a 92 bc 05 39 08 bd 21 d8 5e 3d
       0.02341239 -0.01788056 -0.033257503 0.054405335
000030 bc de 1d bb 42 74 3f 3d 7d fb ae 3c 00 38 4f 3d
       -0.002408906 0.04674173 0.021360153 0.050590515
000040 92 f8 4f 3d e5 cf a1 3b 64 3e 07 bd 4b de 54 bc
       0.050774164 0.004938113 -0.033018485 -0.012992452
000050 2f 51 41 bd e0 87 63 3d 61 7e a6 bb a4 e7 24 bd
       -0.047196563 0.055549502 -0.0050809835 -0.040259972
000060 f8 39 15 3d 17 c9 29 3d 2d af 1e 3d e4 82 83 3b
       0.036432236 0.04145154 0.03874128 0.004013406
000070 6f 73 44 bb 75 8c 54 3d d2 6c 35 bd cf 1b da 3b
       -0.002997603 0.051891763 -0.044293232 0.006656147
